commonroadrl2/train_model_save_20250729_125944/q_network_62100_episodes.pth (torch, 165369 bytes, 8 tensors)

fc.0.weight f4 [128, 33]
0.0876773 -0.048771247 -0.02985612 0.06628172 -0.08527832 -0.019821564 -0.11507399 -0.070808865
0.09516448 0.07176664 -0.14684708 0.12580532 -0.051814772 0.05672352 -0.075640246 -0.15212151
0.087040134 -0.06029179 0.1150876 0.017946089 -0.000855467 0.020207336 0.09047498 -0.1424265
0.021201177 -0.16523024 0.021362977 -0.044454608 0.1467658 -0.10299946 0.11955328 0.100020126
-0.08905986 -0.0283996 0.07243332 0.1306143 -0.002711559 0.0056044045 -0.14081146 -0.11674261
0.07786935 -0.09735258 0.010952879 0.1257625 -0.15356934 0.13391899 -0.1502481 0.07528792
0.08300889 -0.040497474 -0.079964876 -0.15135628 0.11493645 -0.01073758 0.050541013 0.020379348
0.01707095 -0.02621779 0.08118457 -0.00022860045 0.14890875 -0.16647246 0.10343448 0.11168138
0.09270285 -0.0032522439 0.10783811 0.03172296 0.11551689 -0.081709154 -0.1503429 0.14885253
-0.1464066 -0.024843592 0.063057944 -0.08927399 0.13973856 -0.070862524 -0.063540526 -0.09536641
0.16766243 -0.0009246531 0.17087162 -0.1315049 -0.011000919 -0.008758224 -0.06478598 0.06610934
0.047931783 -0.0061487835 -0.0092033055 0.10311787 -0.16696359 -0.05202455 -0.03792472 0.14209719
-0.03519343 0.16980167 -0.019623032 -0.05863033 -0.10657155 0.005439844 0.08412382 -0.05213105
-0.05232906 0.042006597 -0.16833021 0.11637962 -0.12994817 0.054849643 -0.06701774 -0.11141148
0.09734677 -0.09337245 0.1375466 -0.10701335 0.15505551 0.03868963 -0.0895045 -0.08246856
-0.11082656 0.10254915 0.03400778 0.13620315 0.09871516 -0.06954075 0.048572864 0.15595661
-0.16951598 0.06876144 -0.11034676 0.16741915 -0.16586313 0.051694058 0.14899366 -0.07486225
-0.008863393 0.14709511 0.14634429 0.10125221 0.12884499 -0.034815375 0.04330173 0.022989597
0.13323562 -0.010509581 -0.13591315 -0.06202854 0.16295397 -0.060845505 0.053961366 0.017040508
-0.07864065 0.03629972 -0.12664013 0.10730346 -0.008856171 0.106348366 0.13879272 -0.055488523
-0.15899932 0.060269274 -0.11956793 -0.020470303 -0.024538647 0.17051376 -0.11425089 0.108823374
0.027180212 0.093706325 -0.0033717942 0.08380051 0.12042342 0.11138455 0.031006653 0.032730807
0.055449344 0.12742773 -0.039265487 -0.106897354 0.1061688 0.094076365 -0.0055658272 -0.09294073
-0.0074345986 0.04590459 -0.07617272 0.09981159 -0.09607718 0.016789163 0.0755633 -0.13592942
0.007279625 -0.031309668 0.007391186 0.0747793 -0.04704836 0.16504656 0.09868681 -0.090914555
-0.13773514 -0.11230117 -0.06307108 -0.15600629 -0.0037949001 0.062424645 0.08309586 -0.0712788
0.07679018 0.05204692 0.056767844 -0.11476853 0.045064915 -0.017659592 -0.012151724 0.14174753
-0.16536929 -0.037498463 0.07489682 0.13449286 0.13378063 0.15753777 -0.15737812 -0.11891556
0.1166495 0.097195655 0.10219859 0.06041522 0.04732276 0.15194592 0.14908762 0.13206144
0.085091345 0.112100065 -0.15052895 0.08047109 -0.071850725 0.042826414 0.040858593 0.16660388
-0.07282607 -0.15698484 0.101716384 -0.01630737 0.108683385 0.16750175 0.076342896 -0.17046645
-0.05850673 0.16970792 -0.14403541 -0.15965134 0.10400143 -0.15637258 0.080403276 -0.07973893
00000000: 2890 b33d 5cc4 47bd d294 f4bc b6be 873d
00000010: 66a6 aebd d560 a2bc e9ab ebbd 3d04 91bd
00000020: 98e5 c23d 63fa 923d 155f 16be 1cd3 003e
00000030: ba3b 54bd ec56 683d 46e9 9abd bec5 1bbe
00000040: 1942 b23d 86f4 76bd 0cb3 eb3d ad03 933c
00000050: 6b41 60ba db89 a53c f24a b93d 41d8 11be
00000060: 17ae ad3c 1e32 29be 6901 af3c 0916 36bd
00000070: c649 163e 62f1 d2bd 5ad8 f43d 5ad7 cc3d
00000080: 0465 b6bd 47a6 e8bc ec57 943d c1bf 053e
00000090: 69b4 31bb 27a5 b73b e130 10be c016 efbd
000000a0: f779 9f3d ca60 c7bd b473 333c e3c7 003e
000000b0: 4841 1dbe 0f22 093e a3da 19be 8e30 9a3d
000000c0: 9100 aa3d aee0 25bd a0c4 a3bd 24fd 1abe
000000d0: cd63 eb3d adec 2fbc 1804 4f3d 97f2 a63c
000000e0: 60d8 8b3c b1c6 d6bc 1944 a63d 77b4 6fb9
000000f0: 897b 183e c277 2abe 75d5 d33d 35b9 e43d
00000100: feda bd3d 9923 55bb 3ada dc3d efef 013d
00000110: 1f94 ec3d 2157 a7bd 7df3 19be cc6c 183e
00000120: 9deb 15be ca84 cbbc 8624 813d 48d5 b6bd
00000130: a017 0f3e 5f20 91bd 8921 82bd 774f c3bd
00000140: b3af 2b3e 6b64 72ba f8f8 2e3e 38a9 06be
00000150: 333d 34bc a77e 0fbc 83ae 84bd 5564 873d
00000160: 1e54 443d bc7b c9bb 76c9 16bc 762f d33d
00000170: 81f8 2abe b217 55bd f456 1bbd ed81 113e
00000180: fc26 10bd 7de0 2d3e 7bc0 a0bc 5b26 70bd
00000190: 2f42 dabd b840 b23b 1c49 ac3d 5e87 55bd
000001a0: ff56 56bd 1c0f 2c3d c15e 2cbe 7058 ee3d
000001b0: 2211 05be 05aa 603d 9940 89bd b42b e4bd
000001c0: be5d c73d 0e3a bfbd 04d9 0c3e d129 dbbd
000001d0: dfc6 1e3e 0479 1e3d 234e b7bd 47e5 a8bd
000001e0: 09f9 e2bd 4a05 d23d be4b 0b3d d778 0b3e
000001f0: 2c2b ca3d 616b 8ebd 57f4 463d 17b3 1f3e
00000200: 9995 2dbe ccd2 8c3d 7bfd e1bd ed6f 2b3e
00000210: 06d8 29be 26bd 533d cb91 183e 6151 99bd
00000220: c437 11bc 1aa0 163e 47db 153e 525d cf3d
00000230: f1ef 033e 919a 0ebd 285d 313d ae54 bc3c
00000240: eb6e 083e 6130 2cbc d12c 0bbe a311 7ebd
00000250: 68dd 263e 2339 79bd 9806 5d3d 8998 8b3c
00000260: 590e a1bd 04af 143d f3ad 01be ebc1 db3d
00000270: 7919 11bc 2ccd d93d ae1f 0e3e ef47 63bd
00000280: b8d0 22be eadc 763d 08e0 f4bd 56b1 a7bc
00000290: 4605 c9bc 299b 2e3e 5ffc e9bd cade de3d
000002a0: 09a9 de3c 1ae9 bf3d 52f9 5cbb 9a9f ab3d
000002b0: 8ea0 f63d 951d e43d aa01 fe3c bd10 063d
000002c0: da1e 633d 6a7c 023e d9d4 20bd 00ed dabd
000002d0: 076f d93d 1cab c03d 8b61 b6bb b657 bebd
000002e0: ef9d f3bb 7406 3c3d 7100 9cbd 056a cc3d
000002f0: 1dc4 c4bd 6d89 893c eec0 9a3d 1531 0bbe
00000300: ec89 ee3b 913e 00bd c331 f23b e425 993d
00000310: c8b5 40bd f701 293e 4f1c ca3d 6931 babd
00000320: 710a 0dbe 28fe e5bd 692b 81bd 1dc0 1fbe
00000330: dcb3 78bb fcb0 7f3d 2a2e aa3d 9ffa 91bd
00000340: 2b44 9d3d 272f 553d 6685 683d c30b ebbd
00000350: fd95 383d d9aa 90bc 0618 47bc 4426 113e
00000360: 9156 29be fd97 19bd 8163 993d 7fb8 093e
00000370: cafd 083e 9551 213e bb27 21be 008a f3bd
00000380: efe5 ee3d 840e c73d 7f4d d13d f375 773d
00000390: 83d5 413d b697 1b3e 6daa 183e 1d3b 073e
000003a0: 5f44 ae3d b894 e53d 4324 1abe 07ce a43d
000003b0: 7926 93bd c06a 2f3d 575b 273d 359a 2a3e
000003c0: d625 95bd a2c0 20be ae50 d03d 0997 85bc
000003d0: 6595 de3d 9485 2b3e aa59 9c3d c28e 2ebe
000003e0: c1a4 6fbd eac7 2d3e 057e 13be a47b 23be
000003f0: b4fe d43d 2220 20be 79aa a43d 2a4e a3bd

fc.0.bias f4 [128]
0.1696944 0.0110788 0.14927852 0.11646568 0.13536842 -0.11377435 -0.14829001 0.16980898
-0.002731024 0.10358071 0.14833805 -0.13509767 -0.10568552 0.007680381 -0.06793544 0.12535535
-0.007130794 0.14975072 0.07462906 -0.0041202656 -0.1634418 0.019167367 0.13867192 -0.16411564
-0.10951615 0.003066558 0.09086542 -0.030198833 0.07162457 0.12622416 -0.0692408 -0.1563818
-0.008435431 0.10533351 -0.15590726 -0.007951419 -0.030174946 -0.1428963 -0.05555551 -0.035259232
-0.13987249 -0.14804946 0.15047868 -0.14289819 -0.102676794 -0.06753271 -0.0632068 -0.100440465
-0.026003072 0.080404334 0.082562566 -0.04319243 -0.15959053 -0.1506881 -0.06369469 0.10827902
0.0637596 0.019292146 -0.043196704 -0.09242731 0.06544746 -0.12207309 0.09447482 0.108304314
-0.16683379 -0.12286236 0.16092809 -0.10920672 0.12647268 -0.0413094 -0.01600423 0.04233819
0.015714163 0.10097885 0.13551225 0.088973284 -0.04108491 0.10451104 -0.12135857 -0.1507246
0.11688468 -0.083286904 0.007373879 0.055528864 -0.07353221 0.025819046 -0.01964503 -0.1172575
0.06575942 0.05258437 0.039932694 -0.010926047 0.15120734 -0.15563072 0.12750353 -0.1279524
-0.103367925 0.12091621 0.16636789 0.008937435 0.123110056 0.036235638 0.054396756 -0.0061920714
0.14981478 0.14287768 0.119548425 0.00037462998 -0.12167551 0.032742135 -0.02406524 0.010924345
0.10158416 0.017580424 0.08956396 0.046994824 0.12948136 -0.07712065 -0.0025791011 -0.048857242
-0.0193328 0.014650973 0.007826474 -0.022248201 -0.13560343 -0.038458996 -0.11383268 -0.051629562
00000000: 5ec4 2d3e db83 353c 78dc 183e 8f85 ee3d
00000010: 059e 0a3e 8702 e9bd 56d9 17be 68e2 2d3e
00000020: fbfa 32bb 2022 d43d eee5 173e 0b57 0abe
00000030: a671 d8bd b5ab fb3b bc21 8bbd 275d 003e
00000040: 70a9 e9bb 4158 193e 1fd7 983d 4b03 87bb
00000050: 4a5d 27be e204 9d3c 0300 0e3e ee0d 28be
00000060: 014a e0bd 4ef8 483b a617 ba3d 8b63 f7bc
00000070: e7af 923d e840 013e 1fce 8dbd 8d22 20be
00000080: c334 0abc 18b9 d73d 27a6 1fbe ab46 02bc
00000090: 7331 f7bc 6853 12be 2d8e 63bd fc6b 10bd
000000a0: bc3a 0fbe 479a 17be 1517 1a3e e753 12be
000000b0: 3648 d2bd 974e 8abd 9172 81bd bbb3 cdbd
000000c0: 6504 d5bc 07ab a43d 9016 a93d 8cea 30bd
000000d0: b36b 23be fb4d 1abe 5d72 82bd 64c1 dd3d
000000e0: 6594 823d 900a 9e3c 07ef 30bd 884a bdbd
000000f0: 5109 863d 7501 fabd 047c c13d a7ce dd3d
00000100: 7ad6 2abe 439f fbbd 55ca 243e c6a7 dfbd
00000110: 0e82 013e 0c34 29bd 4e1b 83bc cf6a 2d3d
00000120: fdba 803c 00ce ce3d b9c3 0a3e a037 b63d
00000130: a748 28bd e209 d63d d88a f8bd 8d57 1abe
00000140: 3c61 ef3d 5392 aabd 95a0 f13b 3c72 633d
00000150: 0e98 96bd 7782 d33c 9dee a0bc b324 f0bd
00000160: e0ac 863d b562 573d 7790 233d 2a03 33bc
00000170: 19d6 1a3e a95d 1fbe 4990 023e f405 03be
00000180: 90b2 d3bd eba2 f73d 585c 2a3e 526e 123c
00000190: 2021 fc3d d26b 143d 22cf 5e3d dce6 cabb
000001a0: 0c69 193e 874e 123e ced5 f43d fc69 c439
000001b0: 0331 f9bd 9e1c 063d 7724 c5bc 06fc 323c
000001c0: 5b0b d03d d204 903c 4f6d b73d a57d 403d
000001d0: c396 043e 6ef1 9dbd 2306 29bb 881e 48bd
000001e0: d25f 9ebc a20a 703c 9c3a 003c dc41 b6bc
000001f0: a0db 0abe 2e87 1dbd 1c21 e9bd 8579 53bd

fc.2.weight f4 [128, 128]
0.043779608 0.023648186 -0.06975093 0.008823854 0.021002227 -0.07779825 -0.04470516 0.0878031
0.041316513 0.023853894 0.070139766 -0.0768032 0.024742918 -0.056491442 -0.068816446 -0.025786486
-0.006917362 0.017322544 0.007106201 -0.07751484 -0.027110148 -0.06361545 0.034165595 0.053876452
-0.04350641 0.012785615 -0.023231953 -0.0056796568 -0.08249343 -0.05670063 0.07583366 0.034994937
-0.057830963 -0.06410489 0.053195834 -0.041107982 -0.006095983 0.06010641 -0.07529287 0.017481364
0.027347667 0.053923223 -0.08020872 0.067781076 0.05301712 -0.07829738 -0.010717564 -0.008593932
-0.022573767 -0.019434903 -0.010712042 0.082853794 -0.07397229 0.07009111 0.07758832 -0.07599074
-0.01078247 -0.023777818 0.03466909 -0.07870417 -0.07834318 0.04282246 0.02972827 0.02271908
0.04078704 0.023088444 0.08270866 -0.0020406134 0.05927637 0.021903748 0.026278412 -0.07514888
0.066111416 -0.063983686 0.028954137 -0.05460593 -0.034397192 -0.06435026 -0.07368198 -0.006488581
0.039127354 0.042788923 0.005249042 -0.009532342 0.035952464 0.08209756 -0.004803761 -0.06473487
-0.016003 -0.062710926 -0.08257114 -0.06059757 -0.049518984 -0.06586061 -0.024373153 0.04954643
0.039995197 -0.057633087 -0.0239616 -0.000253429 0.012263163 -0.00972038 0.00037444313 -0.009939028
-0.023036888 -0.02185511 -0.018115042 -0.04353252 0.06591989 -0.049325593 -0.059078608 -0.019171
0.03697647 -0.0257226 -0.0864295 -0.07824327 0.04031032 -0.004171474 -0.009285183 -0.012381743
-0.051479846 -0.07801106 0.021700706 -0.043020435 -0.07226784 -0.03723321 0.02721324 0.05599867
-0.08304543 0.048664343 0.0368981 -0.071609214 -0.008829797 -0.07755198 0.062360518 -0.06497072
-0.07656732 -0.06374808 0.018101608 0.080942295 -0.080258995 0.0085995905 -0.052967377 -0.07247029
0.08370183 0.07853506 0.045075167 0.03490894 -0.076919936 -0.019505834 8.2945e-05 0.054346304
-0.061321884 0.068092 0.01093972 0.06171228 0.079260126 -0.077637434 0.044655606 -0.014067996
-0.0798503 0.03746506 0.0236243 -0.08819017 -0.022002382 0.042109117 -0.035103012 0.018743388
-0.08522162 -0.060867425 0.0675368 0.052631035 0.07405001 0.017362447 -0.028507654 0.05198386
0.07543131 0.055515185 -0.059021067 -0.05010705 -0.04362225 -0.0014791541 0.030233052 0.049057644
0.04362009 -0.020393848 0.016532006 -0.0850086 -0.076839395 0.04599593 0.087991744 -0.06860767
-0.06396806 -0.0858383 0.03322789 0.038380597 0.042064007 0.06006896 0.0792676 0.020842902
0.08811557 0.026793953 0.08627902 -0.0876999 0.0021173523 0.013573856 0.061997898 0.045693725
0.010409249 -0.06325919 0.04464295 -0.059515722 0.022791298 0.03395076 -0.06946921 -0.08325622
-0.029614568 0.05507557 0.081174575 0.0060606217 -0.019120319 -0.006098428 0.03665347 0.0529343
0.06874082 0.033543624 -0.021201624 -0.0068693776 0.048682593 -0.05588473 -0.081859365 -0.045922425
0.072278485 -0.08065855 0.018741144 -0.026287768 -0.032566447 0.051425222 -0.0072742086 0.050380424
0.08803012 -0.06863551 -0.06786891 -0.083228216 0.08694909 -0.033013657 -0.045373876 -0.050317213
-0.044864435 -0.04908444 0.03571591 -0.03937272 -0.073877186 -0.07070409 -0.049717233 -0.044721168
00000000: 3f52 333d d7b9 c13c 93d9 8ebd ed91 103c
00000010: dd0c ac3c b054 9fbd c21c 37bd 1dd2 b33d
00000020: 813b 293d 3e69 c33c 70a5 8f3d ff4a 9dbd
00000030: a9b1 ca3c 9263 67bd a3ef 8cbd 2e3e d3bc
00000040: 0aab e2bb 02e8 8d3c 22db e83b 1ac0 9ebd
00000050: 1a16 debc d148 82bd 39f1 0b3d 8ead 5c3d
00000060: c733 32bd c27a 513c f050 bebc 6a1c babb
00000070: 51f2 a8bd eb3e 68bd ae4e 9b3d da56 0f3d
00000080: 29e0 6cbd 6d49 83bd e0e3 593d d860 28bd
00000090: d0c0 c7bb 2432 763d 2633 9abd 1435 8f3c
000000a0: 3708 e03c 99de 5c3d 7844 a4bd ced0 8a3d
000000b0: 7b28 593d 605a a0bd b998 2fbc 90cd 0cbc
000000c0: 9fec b8bc f235 9fbc 9081 2fbc 40af a93d
000000d0: c97e 97bd ee8b 8f3d a0e6 9e3d 08a1 9bbd
000000e0: f5a8 30bc b3c9 c2bc 2d01 0e3d a72f a1bd
000000f0: 6472 a0bd 9b66 2f3d b388 f33c 5d1d ba3c
00000100: 5010 273d fa23 bd3c 2863 a93d d0bb 05bb
00000110: c7cb 723d 7d6f b33c d345 d73c a8e7 99bd
00000120: 6c65 873d e109 83bd 3a31 ed3c 78aa 5fbd
00000130: 12e4 0cbd 12ca 83bd 94e6 96bd 2a9e d4bb
00000140: 0144 203d 7043 2f3d 2800 ac3b 8a2d 1cbc
00000150: e442 133d c422 a83d de68 9dbb b793 84bd
00000160: b918 83bc 966e 80bd 0f1b a9bd 2835 78bd
00000170: 6bd4 4abd ede1 86bd 35aa c7bc 33f1 4a3d
00000180: 01d2 233d ac10 6cbd 1e4b c4bc aade 84b9
00000190: 6feb 483c 3b42 1fbc e850 c439 4ed7 22bc
000001a0: dbb7 bcbc 7d09 b3bc ff65 94bc 284f 32bd
000001b0: 0201 873d a209 4abd 69fc 71bd 800c 9dbc
000001c0: a474 173d 34b8 d2bc f301 b1bd 023e a0bd
000001d0: 6f1c 253d dcb0 88bb e120 18bc cbdc 4abc
000001e0: 88dc 52bd 43c4 9fbd aec5 b13c 3236 30bd
000001f0: 2901 94bd da81 18bd 4dee de3c dd5e 653d
00000200: b913 aabd 4354 473d 7622 173d daa7 92bd
00000210: daaa 10bc 93d3 9ebd be6d 7f3d 5e0f 85bd
00000220: 54cf 9cbd 5a8e 82bd d349 943c 13c5 a53d
00000230: d45e a4bd 4ce5 0c3c 52f4 58bd 4e6b 94bd
00000240: dd6b ab3d fdd6 a03d bda0 383d adfc 0e3d
00000250: 3388 9dbd b3ca 9fbc c2f2 ad38 3b9a 5e3d
00000260: a82c 7bbd d273 8b3d 833c 333c 04c6 7c3d
00000270: 2253 a23d 6000 9fbd cce8 363d 747d 66bc
00000280: 8e88 a3bd f674 193d bf87 c13c 0c9d b4bd
00000290: 573e b4bc 9c7a 2c3d 2dc8 0fbd bc8b 993c
000002a0: ac88 aebd 1f50 79bd bc50 8a3d a493 573d
000002b0: 88a7 973d b13b 8e3c e288 e9bc 07ed 543d
000002c0: bb7b 9a3d e463 633d 13c0 71bd 0d3d 4dbd
000002d0: 3fad 32bd 2de0 c1ba 4eab f73c abf0 483d
000002e0: fbaa 323d 0011 a7bc 216e 873c fd18 aebd
000002f0: f95d 9dbd 3a66 3c3d 0435 b43d 2e82 8cbd
00000300: b001 83bd fecb afbd f819 083d f934 1d3d
00000310: 4f4b 2c3d df0a 763d 0d57 a23d bcbe aa3c
00000320: f075 b43d fe7e db3c 0eb3 b03d 019c b3bd
00000330: 47c3 0a3b e164 5e3c 82f1 7d3d 5829 3b3d
00000340: 8e8b 2a3c 098e 81bd 87db 363d c2c6 73bd
00000350: d1b4 ba3c f40f 0b3d e045 8ebd 3d82 aabd
00000360: 409a f2bc ec96 613d db3e a63d 2e98 c63b
00000370: 37a2 9cbc 52d5 c7bb f321 163d a3d1 583d
00000380: fdc7 8c3d 0a65 093d 07af adbc 8418 e1bb
00000390: 6667 473d 63e7 64bd e2a5 a7bd 2719 3cbd
000003a0: be06 943d 4f30 a5bd 0787 993c 7259 d7bc
000003b0: 6564 05bd 41a3 523d 7c5c eebb b45b 4e3d
000003c0: 2349 b43d c690 8cbd dbfe 8abd 8e73 aabd
000003d0: 5d12 b23d 5439 07bd f5d9 39bd 6c19 4ebd
000003e0: c5c3 37bd c40c 49bd d94a 123d 4a45 21bd
000003f0: ec4c 97bd 4ecd 90bd 4ca4 4bbd 8b2d 37bd

fc.2.bias f4 [128]
-0.042849816 0.03258846 0.058507495 0.019677635 0.029880334 0.0066776094 -0.077954724 -0.046450842
0.07822693 -0.00365194 -0.013330995 -0.022201853 0.040283892 0.0551908 -0.0031977235 0.067012094
-0.021479446 0.040418606 0.044813614 0.05379394 0.088257544 0.054967117 0.05033854 0.042991176
-0.06009835 -0.039789185 0.010149899 0.06920934 0.004291413 0.0122713605 -0.015168071 -0.04651719
-0.06725888 0.069519326 0.07216771 0.059624113 0.04688408 -0.05743175 -0.066652395 -0.037074
-0.010425539 0.029937318 -0.021087669 -0.044577584 -0.050097987 -0.07962688 -0.07415577 0.06247693
-0.01592154 -0.045878466 0.05752642 0.069317244 -0.07882055 0.04159797 0.08355543 -0.08756304
-0.059299666 -0.080973074 0.050706945 -0.0016941136 0.04943661 -0.085146 0.03668275 -0.011921373
-0.0216038 -0.05816772 0.009047801 0.03193948 0.034266062 0.029264169 -0.08380503 0.07804629
0.058623735 -0.074626505 0.038772296 0.048691727 -0.07359429 -0.068588555 0.061669752 -0.05217411
0.012755985 0.08402843 0.07172913 0.03711771 -0.057347372 -0.061988078 0.024591917 -0.06658909
-0.049993757 -0.025944471 -0.055904854 0.0007511095 0.010557722 0.045625057 -0.0055369367 0.0045261607
0.008797438 0.0008307776 0.058510445 0.068003125 -0.0061044125 -0.07306529 -0.011505173 -0.029600533
-0.052100383 -0.01960705 -0.07072588 -0.08436496 -0.08009402 -0.07104553 0.06324829 0.005350732
0.032605074 0.047500204 -0.036347706 -0.082624525 0.065024525 0.02860809 -0.002126161 -0.010771112
-0.0036403602 0.08179277 -0.08350925 0.038805384 0.08487079 -0.06776217 0.0034615311 0.0035107797
00000000: 4a83 2fbd 7a7b 053d 8ea5 6f3d fe32 a13c
00000010: 9ac7 f43c d9cf da3b baa6 9fbd 3d43 3ebd
00000020: 7135 a03d 6355 6fbb 3f6a 5abc a9e0 b5bc
00000030: b900 253d c00f 623d e690 51bb a33d 893d
00000040: aaf5 afbc fb8d 253d 7b8e 373d 0957 5c3d
00000050: 5fc0 b43d 3325 613d c92f 4e3d 8417 303d
00000060: b029 76bd fcf9 22bd c34b 263c a0bd 8d3d
00000070: fb9e 8c3b d10d 493c 8083 78bc cf88 3ebd
00000080: 06bf 89bd 2660 8e3d aacc 933d 6a38 743d
00000090: 8509 403d 8e3d 6bbd 0d81 88bd e8da 17bd
000000a0: e1cf 2abc 1b3f f53c 0cc0 acbc fc96 36bd
000000b0: 8c33 4dbd 6b13 a3bd fbde 97bd cfe7 7f3d
000000c0: e46d 82bc 0feb 3bbd d3a0 6b3d 33f6 8d3d
000000d0: ab6c a1bd a262 2a3d 1c1f ab3d 4054 b3bd
000000e0: 35e4 72bd 36d5 a5bd 16b2 4f3d 050d deba
000000f0: 0b7e 4a3d 0761 aebd a740 163d dd51 43bc
00000100: 74fa b0bc 4641 6ebd 3a3d 143c f9d2 023d
00000110: 925a 0c3d 69bb ef3c f9a1 abbd bcd6 9f3d
00000120: 711f 703d c8d5 98bd b3cf 1e3d fa70 473d
00000130: 9ab8 96bd 2878 8cbd 6c99 7c3d 85b4 55bd
00000140: 7bfe 503c 1917 ac3d b9e6 923d bd08 183d
00000150: 14e5 6abd 36e7 7dbd fd74 c93c dc5f 88bd
00000160: 41c6 4cbd 8089 d4bc 7dfc 64bd 1be6 443a
00000170: 4cfa 2c3c 57e1 3a3d 316f b5bb 3050 943b
00000180: 2123 103c 8ac8 593a a6a8 6f3d 3945 8b3d
00000190: 8607 c8bb 41a3 95bd 3180 3cbc d17c f2bc
000001a0: 3667 55bd f79e a0bc bbd8 90bd 89c7 acbd
000001b0: 5508 a4bd 5280 91bd 5288 813d 3155 af3b
000001c0: e68c 053d 938f 423d 55e1 14bd 0c37 a9bd
000001d0: 942b 853d 835b ea3c 1057 0bbb 5179 30bc
000001e0: 1c93 6ebb f882 a73d e606 abbd 65f2 1e3d
000001f0: bdd0 ad3d e5c6 8abd dbda 623b 1c15 663b

fc.4.weight f4 [128, 128]
-0.020822734 -0.024696779 -0.013435656 -0.018295262 0.0014972457 0.057184897 0.066949405 -0.08575971
-0.005165855 0.018386858 0.087448746 0.06426689 0.020455351 0.070524886 0.0019553504 -0.068667784
-0.05147265 -0.082787916 -0.01063581 -0.0072709317 -0.046459746 -0.006753737 0.02569413 -0.023064071
-0.075833045 0.07892001 0.017957538 0.027497005 -0.0044320785 0.07284003 0.04945138 0.07138006
-0.03582953 -0.004245357 0.08209739 0.06480235 0.008904238 -0.0066454094 0.0058921822 -0.08667765
-0.048359577 -0.0040558544 0.0007624786 -0.021023985 0.06349475 0.06321309 0.047668885 0.0040675607
-0.00079748157 0.048414454 0.0204149 0.088265754 0.06882891 -0.00063412037 -0.06990038 -0.026309865
-0.06323574 0.06813864 -0.027428241 -0.0137517685 0.067395814 0.07215297 0.028321322 0.07369826
-0.030728444 0.054433137 0.038008373 0.01246944 -0.075060114 0.03107682 -0.065074466 0.04013518
-0.07054434 0.036754146 0.0003089048 0.07880646 0.08014823 -0.0062371646 -0.06369797 0.008573301
0.0057946965 -0.05524197 0.027042197 -0.0058004176 -0.06458059 0.06309588 0.06923632 -0.047352225
0.06684307 0.061947268 0.011504235 -0.058969993 0.032564826 0.027034769 0.024924992 -0.039612368
-0.017273463 -0.03497041 -0.057137407 -0.0647053 0.0810064 -0.002404678 -0.06909983 0.037881304
-0.026211852 0.0726129 -0.015515066 0.06687971 -0.04605545 0.07083929 0.023654023 0.06285029
0.056882378 -0.075611055 0.010379515 0.07981021 -0.017390959 0.07996848 -0.086110614 0.013978908
-0.035279483 0.086604565 0.023973074 0.029498126 -0.0053726905 0.069008306 0.07136089 0.044881146
0.027934909 0.016462274 -0.0702588 -0.024632925 0.032933433 0.079808906 -0.06643109 0.07166552
-0.017342985 3.0177143e-05 0.08711648 0.06547312 -0.020248663 0.059389483 0.0070450245 0.060307976
-0.056651212 -0.0828614 0.033495616 -0.046320893 0.004673348 -0.04089124 0.002981784 0.017341426
0.08764465 0.027794033 0.0024575721 -0.046074703 -0.08536549 0.0077590346 -0.0013398693 0.05144248
-0.05388913 0.050487857 -0.013814293 0.020251319 -0.014058682 -0.06177692 0.051847618 0.04599753
-0.043540105 -0.036684636 0.041046415 -0.040134937 0.00010155283 0.057486553 0.069246225 -0.06778286
0.01976585 -0.048370358 -0.06213088 0.025032679 -0.025037566 0.04565118 -0.06945517 -0.013646527
-0.029077584 -0.05901549 -0.040417332 -0.032787707 -0.05562581 -0.046197854 0.054349225 0.06812759
0.05194578 -0.04326297 -0.060010556 -0.017004335 0.078537576 0.05477815 -0.029173637 -0.06612664
0.04945217 0.071784794 0.035848074 -0.07071686 0.050965138 0.053213913 0.08034401 -0.012158828
-0.042218044 -0.07673104 -0.04655385 -0.063013 -0.03584559 0.020859655 0.012454056 0.04208961
0.06568945 0.06321966 -0.08345195 0.013001607 -0.029066216 0.06343776 -0.081297845 0.015787914
-0.011745125 0.08646237 0.027059551 -0.00042864398 -0.05097166 0.012335834 -0.029538134 -0.08690347
-0.047516335 0.023674559 -0.057068896 0.06604908 0.050124656 -0.047796443 -0.009247071 0.08671953
-0.0034088371 0.013509393 -0.04649906 0.03260165 -0.024036832 -0.0666594 -0.07796727 -0.043791924
-0.085453294 0.015782962 0.01999142 0.033288244 0.05018855 0.017673975 0.0024017487 -0.06886996
00000000: 7094 aabc e650 cabc 3a21 5cbc f2df 95bc
00000010: 3b3f c43a b63a 6a3d c51c 893d c9a2 afbd
00000020: 5546 a9bb 09a0 963c 5418 b33d 5c9e 833d
00000030: fb91 a73c 5a6f 903d 5625 003b b2a1 8cbd
00000040: fcd4 52bd b68c a9bd d241 2ebc ff40 eebb
00000050: 934c 3ebd 744e ddbb 7f7c d23c ddf0 bcbc
00000060: 5b4e 9bbd d0a0 a13d b01b 933c 6641 e13c
00000070: f83a 91bb 272d 953d 888d 4a3d b52f 923d
00000080: fcc1 12bd a31c 8bbb ad22 a83d 18b7 843d
00000090: 15e3 113c bcc1 d9bb 3513 c13b 0d84 b1bd
000000a0: b114 46bd f9e6 84bb 13e1 473a 7e3a acbc
000000b0: 8909 823d dd75 813d 7340 433d 2c49 853b
000000c0: 150e 51ba 3c4e 463d 263d a73c adc4 b43d
000000d0: 2cf6 8c3d 193b 26ba ee27 8fbd c987 d7bc
000000e0: bd81 81bd 458c 8b3d 31b1 e0bc 194f 61bc
000000f0: d106 8a3d f0c4 933d 1e02 e83c 1def 963d
00000100: 38ba fbbc 48f5 5e3d abae 1b3d 9f4c 4c3c
00000110: 1eb9 99bd d194 fe3c c345 85bd c964 243d
00000120: 8d79 90bd 848b 163d 80f4 a139 4865 a13d
00000130: c124 a43d 2161 ccbb 1574 82bd 0877 0c3c
00000140: 70e1 bd3b 6745 62bd 9987 dd3c 6e11 bebb
00000150: d442 84bd 6a38 813d c6cb 8d3d 68f4 41bd
00000160: 05e5 883d 6bbc 7d3d 427c 3c3c 858a 71bd
00000170: b262 053d 0578 dd3c 7f2f cc3c 9440 22bd
00000180: 1481 8dbc 223d 0fbd ea08 6abd 3684 84bd
00000190: afe6 a53d cd97 1dbb 3684 8dbd 6d29 1b3d
000001a0: 3dba d6bc 12b6 943d e732 7ebc 3bf8 883d
000001b0: a4a4 3cbd 3114 913d 15c6 c13c a7b7 803d
000001c0: 7ffd 683d f8d9 9abd d70e 2a3c 8973 a33d
000001d0: 7c77 8ebc 84c6 a33d c35a b0bd ca07 653c
000001e0: 3881 10bd bc5d b13d 2e63 c43c 0ea6 f13c
000001f0: 650d b0bb 3a54 8d3d a925 923d 4bd5 373d
00000200: c0d7 e43c e4db 863c d9e3 8fbd fdca c9bc
00000210: 35e5 063d da72 a33d 060d 88bd 5fc5 923d
00000220: e012 8ebc ec24 fd37 206a b23d c516 863d
00000230: 86e0 a5bc 6342 733d f3d9 e63b 7f05 773d
00000240: 1a0b 68bd 3db3 a9bd b332 093d faba 3dbd
00000250: e222 993b 937d 27bd 096a 433b 9b0f 8e3c
00000260: 0a7f b33d 50b0 e33c 380f 213b d4b8 3cbd
00000270: 1ad4 aebd 803f fe3b 8e9e afba 5ab5 523d
00000280: d9ba 5cbd 5bcc 4e3d 5855 62bc 18e6 a53c
00000290: 6356 66bc cc09 7dbd 2b5e 543d e867 3c3d
000002a0: 1c57 32bd a142 16bd 4920 283d 8864 24bd
000002b0: c3f8 d438 0577 6b3d f7d0 8d3d bdd1 8abd
000002c0: feeb a13c ff1f 46bd f37c 7ebd 5511 cd3c
000002d0: 951b cdbc bbfc 3a3d 833e 8ebd af95 5fbc
000002e0: 1d34 eebc 3aba 71bd a58c 25bd 674c 06bd
000002f0: e4d7 63bd f639 3dbd 4b9d 5e3d 7a86 8b3d
00000300: 19c5 543d 8334 31bd a1cd 75bd ad4c 8bbc
00000310: 4fd8 a03d 0e5f 603d 8dfd eebc 676d 87bd
00000320: 5c8e 4a3d e803 933d 6ed5 123d 00d4 90bd
00000330: d2c0 503d d5f6 593d 668b a43d d235 47bc
00000340: d4ec 2cbd 2a25 9dbd 40af 3ebd f60c 81bd
00000350: d3d2 12bd dee1 aa3c 190c 4c3c 2866 2c3d
00000360: 3188 863d 4f79 813d dbe8 aabd b104 553c
00000370: 461c eebc a8eb 813d 7c7f a6bd a855 813c
00000380: a06e 40bc 2f13 b13d feab dd3c 9fbb e0b9
00000390: a9c7 50bd 3d1c 4a3c f5f9 f1bc 72fa b1bd
000003a0: 7da0 42bd 26f1 c13c 13c1 69bd bd44 873d
000003b0: 834f 4d3d 34c6 43bd 0781 17bc 029a b13d
000003c0: cc66 5fbb 8056 5d3c cc75 3ebd 4f89 053d
000003d0: e4e8 c4bc b984 88bd 4ead 9fbd 295f 33bd
000003e0: 2302 afbd 454b 813c 0cc5 a33c 4159 083d
000003f0: 8292 4d3d 03c9 903c a866 1d3b b20b 8dbd

fc.4.bias f4 [128]
-0.011127063 -0.055063583 0.052431565 -0.028248893 -0.08356777 -0.06310018 -0.02676724 -0.058767237
0.018843245 0.0035813863 0.036620807 -0.04733895 0.018030137 0.033384055 -0.07151633 0.011556002
-0.05034153 -0.068829596 0.028358264 0.0305988 0.0535069 0.058683764 0.009435077 0.052060947
-0.063576646 -0.0627557 -0.013049117 0.012403501 0.054827802 0.06483916 0.06979843 -0.014319592
-0.081884295 -0.06632911 0.00035564564 -0.0034291518 0.061440483 0.010118731 -0.07862381 0.0042057917
-0.02816226 -0.081238374 0.0123967575 -0.06979532 -0.06728901 0.06712229 -0.078648746 -0.024206989
-0.08179042 -0.029009359 -0.074141435 0.087903865 0.011117591 -0.010472554 -0.045194864 -0.027611602
0.006262231 0.069134004 0.039838582 0.042866632 -0.009191964 0.054533955 -0.0051160795 -0.062269375
-0.06135075 0.005134761 0.020899706 0.035212047 -0.008230173 -0.056603227 -0.072664276 -0.020699656
-0.041162476 0.051396057 -0.01413502 -0.032318592 -0.0027642536 0.045815878 0.010062803 -0.0630569
0.08512125 -0.03668883 0.01955131 -0.037211053 -0.0572203 -0.06807346 0.049819037 -0.008200828
-0.078632616 -0.06693382 -0.07069539 0.03757183 -0.07286096 0.026351178 0.04548413 0.08651674
0.018890038 0.005539929 -0.03455012 -0.05305775 -0.013317192 0.046944655 0.02541614 0.03665703
0.0877757 0.011276431 -0.025541285 0.061684884 -0.04416014 -0.0037133058 0.040241145 -0.00785926
-0.036204785 0.0024574562 0.03511884 0.061887715 0.06822606 0.033381376 0.011943068 -0.069580466
-0.07520205 0.059683286 0.032305557 -0.05999884 0.0045475923 -0.07216216 0.057374272 0.07381381
00000000: 494e 36bc 5a8a 61bd 7bc2 563d 396a e7bc
00000010: 9425 abbd ab3a 81bd f946 dbbc eab5 70bd
00000020: 265d 9a3c b1b5 6a3b b3ff 153d 7de6 41bd
00000030: f0b3 933c b8bd 083d 2777 92bd 6355 3d3c
00000040: ec32 4ebd 88f6 8cbd 974f e83c 56aa fa3c
00000050: 0d2a 5b3d 635e 703d 9595 1a3c dc3d 553d
00000060: 7934 82bd 0f86 80bd f7cb 55bc 0e38 4b3c
00000070: 1e93 603d 65ca 843d 7bf2 8e3d b99c 6abc
00000080: f4b2 a7bd 8ed7 87bd f375 ba39 9fbb 60bb
00000090: 04a9 7b3d 09c9 253c 8505 a1bd bdd0 893b
000000a0: 8ab4 e6bc 4e60 a6bd c51b 4b3c d9f0 8ebd
000000b0: d2ce 89bd 6977 893d 9812 a1bd bc4d c6bc
000000c0: bc81 a7bd 09a5 edbc 77d7 97bd f106 b43d
000000d0: 8e26 363c 1395 2bbc 401e 39bd ba31 e2bc
000000e0: 6733 cd3b 2196 8d3d c82d 233d ec94 2f3d
000000f0: e499 16bc ff5e 5f3d c9a4 a7bb 2c0e 7fbd
00000100: ed4a 7bbd 7f41 a83b dc35 ab3c 823a 103d
00000110: d9d7 06bc c9d8 67bd 02d1 94bd 5392 a9bc
00000120: fc99 28bd ac84 523d 9296 67bc 8060 04bd
00000130: 7b28 35bb 6ea9 3b3d 74de 243c fa23 81bd
00000140: 0d54 ae3d 0747 16bd 122a a03c 9e6a 18bd
00000150: d55f 6abd 196a 8bbd 0c0f 4c3d c45c 06bc
00000160: 230a a1bd 9914 89bd bfc8 90bd ebe4 193d
00000170: 2138 95bd 6dde d73c 914d 3a3d b02f b13d
00000180: 48bf 9a3c 4b88 b53b 6d84 0dbd 1553 59bd
00000190: 5a30 5abc 0a49 403d 8235 d03c af25 163d
000001a0: bfc3 b33d c8c0 383c f53b d1bc 4aa9 7c3d
000001b0: 43e1 34bd ef5a 73bb e6d3 243d 20c4 00bc
000001c0: 784b 14bd 460d 213b c6d8 0f3d f97d 7d3d
000001d0: 1bba 8b3d e9ba 083d dcac 433c 3480 8ebd
000001e0: 8803 9abd 7676 743d d552 043d 58c1 75bd
000001f0: f803 953b c1c9 93bd 4901 6b3d b22b 973d

fc.6.weight f4 [25, 128]
0.06575502 0.051934652 -0.021582557 0.04912898 -0.0008997509 0.03297715 0.010160583 0.047385637
0.017975114 -0.0049596936 0.014319117 -0.08558494 -0.0045875157 -0.009633505 -0.027315563 -0.0113919135
-0.06611018 -0.041536834 -0.059423443 -0.07956325 -0.06435905 0.05952881 0.010114716 -0.060735673
0.021311427 0.06840264 -0.0721463 0.074420944 -0.0782057 0.009576238 -0.0061862404 -0.01646415
0.069795296 0.029272525 0.08818054 0.06710759 0.02280663 0.07947916 0.034860987 0.05319103
0.030127041 0.047225248 -0.020298608 -0.015338829 -0.033669326 -0.02208166 0.03265759 -0.0015943625
-0.033902746 0.00947145 -0.022193065 -0.039147783 0.0029544097 0.0037252544 0.060368944 -0.0024096302
-0.053874556 0.06437144 0.016032502 0.011943384 -0.06951715 0.026625829 0.05429513 0.04845423
-0.075708464 -0.07304618 0.041619074 -0.085749015 -0.0750197 0.06734216 0.047286984 -0.014939393
0.01588011 0.054562286 0.07653622 0.0010829316 0.061109442 0.033367585 -0.0035172072 0.073510885
-0.08653949 -0.02754543 -0.06359516 0.0822914 -0.07697817 -0.070191614 -0.020377958 0.055906214
-0.026113607 -0.029267762 0.017240673 -0.043061055 -0.069068946 0.055349443 -0.06348268 -0.042898517
0.08022225 0.0571316 0.02790155 -0.065359496 -0.051118564 0.07893034 0.06310761 0.06432809
-0.012756186 -0.047052287 -0.046063967 0.03986348 0.06317467 0.021853004 0.041734748 0.053279504
0.07965613 0.011183866 0.06985978 -0.036429208 -0.022051178 -0.065080084 0.05303696 0.058006115
-0.05676608 0.03694976 -0.06523812 -0.017364101 -0.050359655 0.02974223 -0.07013113 -0.040074423
-0.07867597 0.04532315 -0.0734162 0.04759019 0.001091519 0.018108118 -0.033196658 -0.053331
-0.060552165 0.00041371345 0.05693759 -0.045138538 0.025953049 0.032566827 -0.061493326 0.086017504
-0.042216927 0.0789213 -0.07725581 -0.047458667 -0.07198865 0.05002814 0.006633714 -0.048528217
0.016478185 0.046927955 -0.08688629 0.06729293 -0.03893221 0.07709729 -0.048144408 -0.067624636
-0.08032706 -0.07364908 0.04619771 -0.07288937 0.036030285 -0.012885545 -0.05518466 0.055538513
0.0050547346 0.049438495 -0.057959598 0.02609404 0.026163489 0.07913351 0.0019273859 0.05678469
0.036025334 -0.049894355 0.066727266 0.032392833 0.06572544 -0.06878958 0.042009775 -0.078045
-0.044495597 -0.044681244 0.06412756 0.03208711 0.043993324 0.028332165 0.0075235916 -0.087241605
0.0075208205 -0.051390737 -0.03210275 -0.039898768 -0.005772116 0.057465803 0.0065276194 0.08300768
-0.069263995 -0.054180447 -0.0118922815 0.021421578 -0.038450338 -0.07506879 -0.001750917 0.047334094
-0.08489082 0.0014981203 0.017614653 0.042485014 0.035708316 -0.042407356 0.02852072 0.0103824865
0.07610987 -0.015128769 -0.061032955 -0.0803743 0.0027997098 -0.021019487 0.06914421 -0.08472005
0.046820123 0.034068372 -0.06773088 -0.02599312 0.06522274 -0.07657531 0.012226432 -0.006569018
-0.04320679 -0.08213526 0.06843434 0.08117592 0.0072141285 0.04069686 -0.07006964 0.004503138
0.08290313 0.03639201 0.00320963 0.02112382 0.052457843 0.086121835 -0.034045223 0.03215758
0.069433525 0.07493977 0.08780019 0.05252079 0.03635642 0.0224727 0.075912416 0.020432517
00000000: 91aa 863d 6eb9 543d e7cd b0bc 783b 493d
00000010: 43dd 6bba 0c13 073d 9378 263c 7117 423d
00000020: 8c40 933c ed84 a2bb bb9a 6a3c 2847 afbd
00000030: df52 96bb d9d5 1dbc e3c4 dfbc 26a5 3abc
00000040: c664 87bd 8722 2abd ff65 73bd 0ff2 a2bd
00000050: adce 83bd 7bd4 733d 32b8 253c f8c5 78bd
00000060: 4d95 ae3c af16 8c3d 70c1 93bd 026a 983d
00000070: 4f2a a0bd a7e5 1c3c f2b5 cabb d3df 86bc
00000080: d6f0 8e3d efcc ef3c 0098 b43d b46f 893d
00000090: f8d4 ba3c f8c5 a23d 65ca 0e3d d6de 593d
000000a0: fccc f63c 436f 413d 4449 a6bc b64f 7bbc
000000b0: d9e8 09bd 99e4 b4bc f7c3 053d eef9 d0ba
000000c0: 9bdd 0abd 242e 1b3c 3bce b5bc 6d59 20bd
000000d0: c59e 413b 6623 743b 6d45 773d e3ea 1dbb
000000e0: 91ab 5cbd 2cd5 833d 9856 833c 2fae 433c
000000f0: 025f 8ebd 691e da3c 9264 5e3d f177 463d
00000100: 0a0d 9bbd 3c99 95bd c378 2a3d 2e9d afbd
00000110: eea3 99bd b0ea 893d ffaf 413d 5bc4 74bc
00000120: 0117 823c b47c 5f3d 06bf 9c3d 28f1 8d3a
00000130: e54d 7a3d 73ac 083d f280 66bb e08c 963d
00000140: 9e3b b1bd f4a6 e1bc 2e3e 82bd 6588 a83d
00000150: bba6 9dbd 9fc0 8fbd adef a6bc eafd 643d
00000160: 34ec d5bc f2c2 efbc 503c 8d3c ca60 30bd
00000170: 0574 8dbd 19b6 623d 3503 82bd 5bb6 2fbd
00000180: 904b a43d d302 6a3d cb91 e43c 33db 85bd
00000190: b361 51bd 3ba6 a13d 903e 813d 72be 833d
000001a0: 52ff 50bc e6b9 40bd 92ad 3cbd e347 233d
000001b0: b961 813d 1205 b33c 0ef2 2a3d 9c3b 5a3d
000001c0: c122 a33d 893c 373c a512 8f3d cb36 15bd
000001d0: aca4 b4bc b548 85bd 493d 593d d297 6d3d
000001e0: 8d83 68bd a258 173d 909b 85bd 293f 8ebc
000001f0: ed45 4ebd faa5 f33c e9a0 8fbd 1425 24bd
00000200: de20 a1bd c4a4 393d 3c5b 96bd eeed 423d
00000210: 4d11 8f3a 7a57 943c 38f9 07bd 9b71 5abd
00000220: 8c05 78bd aee7 d839 6437 693d 30e3 38bd
00000230: 7d9b d43c cb64 053d 6de0 7bbd f229 b03d
00000240: a8eb 2cbd 7ea1 a13d 4b38 9ebd 0564 42bd
00000250: c96e 93bd 4fea 4c3d a05f d93b 86c5 46bd
00000260: 42fd 863c 8737 403d 70f1 b1bd e0d0 893d
00000270: 6277 1fbd 2fe5 9d3d 1233 45bd c97e 8abd
00000280: 8382 a4bd 54d5 96bd cf39 3d3d 0647 95bd
00000290: 7e94 133d e51d 53bc 4f09 62bd 5a7c 633d
000002a0: 30a2 a53b 0580 4a3d 0b67 6dbd 2bc3 d53c
000002b0: d054 d63c c010 a23d 57a0 fc3a 1097 683d
000002c0: 4d8f 133d 065e 4cbd 4ea8 883d 59ae 043d
000002d0: 0f9b 863d 8de1 8cbd 7112 2c3d 0fd6 9fbd
000002e0: 0441 36bd ae03 37bd 4f55 833d c66d 033d
000002f0: 5832 343d db18 e83c 7688 f63b baab b2bd
00000300: 3771 f63b 187f 52bd 2c7e 03bd e46c 23bd
00000310: 0524 bdbb 4361 6b3d a4e5 d53b eeff a93d
00000320: 48da 8dbd 51ec 5dbd d8d7 42bc 4e7c af3c
00000330: 1a7e 1dbd aabd 99bd 077f e5ba 65e1 413d
00000340: 3ddb adbd 935c c43a 9b4c 903c c404 2e3d
00000350: e242 123d 56b3 2dbd 49a4 e93c 4e1b 2a3c
00000360: 7edf 9b3d a8de 77bc b1fd 79bd 489b a4bd
00000370: 567b 373b 0f31 acbc 7b9b 8d3d b581 adbd
00000380: 75c6 3f3d 478b 0b3d 7db6 8abd 86ef d4bc
00000390: 8093 853d 84d3 9cbd 5f51 483c eb40 d7bb
000003a0: 9af9 30bd 8836 a8bd 4e27 8c3d 903f a63d
000003b0: 7f64 ec3b c0b1 263d ac80 8fbd 0f8f 933b
000003c0: 1ec9 a93d ca0f 153d a858 523b dd0b ad3c
000003d0: 09de 563d a560 b03d 0173 0bbd abb7 033d
000003e0: 2a33 8e3d 067a 993d 96d0 b33d 0a20 573d
000003f0: 78ea 143d ab18 b83c f877 9b3d 1862 a73c

fc.6.bias f4 [25]
-0.008035043 -0.0043073343 0.064826466 -0.04879189 0.016157795 -0.053727694 0.023131676 -0.026452616
0.047514334 -0.035178468 0.013212015 -0.02605047 -0.040169917 -0.05557124 0.03978299 -0.04217691
-0.084413625 0.070131585 0.011041599 -0.04289702 -0.046813905 0.015975194 0.035038285 0.019939527
0.08148417
00000000: 6aa5 03bc 8a24 8dbb bdc3 843d 01da 47bd
00000010: 5a5d 843c 9211 5cbd a47e bd3c 28b3 d8bc
00000020: 649e 423d 4c17 10bd 3577 583c cc67 d5bc
00000030: 3689 24bd ab9e 63bd 7df3 223d b2c1 2cbd
00000040: 0de1 acbd 26a1 8f3d d3e7 343c c9b4 2fbd
00000050: f0bf 3fbd 69de 823c 4e84 0f3d 3858 a33c
00000060: 2ce1 a63d
